src/matmul_relu_matmul_fashion_mnist/onnx-model-examples/mnist_model_cpu_initial.onnx (onnx, 407557 bytes, 4 tensors)

fc1.weight f4 [128, 784]
000000 d5 a6 79 3e 50 10 74 3d e8 f7 c8 3e a9 22 13 3e
       0.24380048 0.05958587 0.39251637 0.1436869
000010 60 28 63 3e 21 61 96 3e e8 c0 1e bd 87 a2 25 be
       0.2218337 0.29370978 -0.03875819 -0.1617528
000020 ba 76 14 3d f1 5c 17 3e 12 63 92 be de 69 19 be
       0.03624604 0.14781548 -0.2859121 -0.14981791
000030 43 da 6e 3e fb 66 29 be 2a 3f 29 be 93 96 0b 3d
       0.23325448 -0.1654319 -0.16528001 0.034079146
000040 46 22 18 be aa c4 a5 be d7 47 ad bd c9 a5 df bd
       -0.14856824 -0.32376605 -0.08460968 -0.10920293
000050 84 41 09 be dd d1 0d be 8e c5 2c bd 5c bb 78 3e
       -0.13403898 -0.13849588 -0.04218059 0.24290222
000060 73 c5 79 3e 89 a6 c9 ba 88 c4 47 be cd ed eb 3d
       0.24391727 -0.0015384714 -0.19508564 0.11519966
000070 ad fd 3b 3e 89 52 19 3e 12 a6 7c 3e 40 ba 32 3e
       0.18358488 0.14972891 0.24672726 0.17453861
000080 0d 21 c1 3e e5 98 43 3e ba 71 fa 3d 7d 16 c1 3e
       0.37720528 0.19101293 0.12228723 0.3771247
000090 4f c6 77 3e 03 af 85 be c3 2e ad be de 5b 19 be
       0.24196742 -0.26110086 -0.3382474 -0.14976451
0000a0 e7 9e cd 3d de 42 17 3d d4 cd b1 3d 46 6a b9 3d
       0.10040074 0.036929004 0.08681837 0.09053473
0000b0 65 12 2d be 47 17 f4 be f8 ae c8 be 7f 86 33 bd
       -0.16901548 -0.4767401 -0.3919599 -0.043829437
0000c0 0d 77 b9 3e d3 8e a0 3e 8d 26 03 3e 9a 81 f2 3d
       0.3622364 0.31358966 0.12807675 0.11841126
0000d0 bc 2d db 3d 86 22 13 3d 71 f6 55 3c 5c 28 74 bd
       0.107020825 0.035921596 0.0130592445 -0.059608802
0000e0 f8 2b c8 bc 46 61 46 3e b1 d9 c1 3d a4 b9 d5 3e
       -0.024435028 0.19373044 0.094653495 0.41743195
0000f0 2a 24 bd 3e d2 69 ad 3d 1d 38 8d 3e ec fa 46 3e
       0.36941653 0.08467449 0.27581874 0.19431657
000100 88 02 ea 3d 0f da a9 3d 00 78 4b 3e 33 de b6 3d
       0.11426264 0.082935445 0.19869995 0.089291
000110 bc b1 ec 3d 35 90 1b 3e a6 f3 c5 3d ef 5d bc 3d
       0.11557338 0.1519173 0.09665613 0.09197604
000120 2a 72 17 bc d6 72 b9 3d 00 60 19 bc ea 26 47 3d
       -0.009243527 0.09055106 -0.009361267 0.048621096
000130 a0 53 bb 3d 6f d1 af 3e 33 73 9d 3e ec de 5f 3e
       0.091468096 0.34339473 0.30751953 0.21862382
000140 4d 41 df 3d 2d f8 e1 bd e5 d0 a8 3c 92 df 34 be
       0.10901127 -0.11033664 0.020607421 -0.1766341
000150 c9 0e 35 3d 65 f7 b1 3d 5c d0 8e 3d 93 c1 b5 3e
       0.044203553 0.08689765 0.06973335 0.35499248
000160 8c f8 11 3e 4b a0 92 3d 75 1e 68 3e c9 c5 8f 3e
       0.1425497 0.0715948 0.22667868 0.28080586
000170 d4 3d a0 3e 15 b6 21 3d 0c 83 9c bd c8 74 5c bd
       0.3129717 0.039480288 -0.07642183 -0.05382231
000180 1d 3f 8a 3d c8 78 41 3d a3 9b cf bd ab 0d 94 3b
       0.06750319 0.047234327 -0.10137107 0.004518231
000190 2a 3b 7f bc 32 c6 35 bd fd 2d 4a bd 67 4b 29 3e
       -0.015578071 -0.044378467 -0.049360264 0.1653267
0001a0 e2 f9 7d 3e 1c 9d 9c 3e 10 6a 49 3e 50 15 f5 3d
       0.24802354 0.30588615 0.19669366 0.11966956
0001b0 c4 2b b1 3d e8 b3 55 bc a5 d7 17 be c7 c5 e6 bc
       0.08650926 -0.013043381 -0.14828356 -0.02817048
0001c0 b0 90 e8 bc 22 9b 6f 3c c2 d0 36 3e 70 de 5f 3e
       -0.028389305 0.014624389 0.17853072 0.21862197
0001d0 af eb 3a 3c 26 25 40 bb 0d 68 72 3e 93 d5 fa 3d
       0.01140873 -0.0029319017 0.23672505 0.12247767
0001e0 db 91 e7 3d c3 0c 83 bd b8 d7 7c bd 3d f0 d5 3b
       0.113071166 -0.063989185 -0.061729163 0.006528883
0001f0 5b d2 60 3d f6 fd 46 3d 32 70 3a bc c9 be 0b 3e
       0.05488811 0.04858204 -0.0113792885 0.13646998
000200 48 15 64 bd 01 b3 e3 bd 32 dc b0 bd 25 e3 3b 3d
       -0.055684358 -0.11118127 -0.08635749 0.04587092
000210 6a f0 54 3d ff b1 67 3e 04 4a 2e 3e 4a fc 9d 3c
       0.05198709 0.22626494 0.17020422 0.01928534
000220 d8 1d 5b 3d 17 4b 03 3d d2 2c 40 3d 2b d5 31 bd
       0.053495258 0.032054033 0.046917744 -0.043416183
000230 9c 55 57 be 51 24 14 bd 7d 6f 4e 3e 3c f8 b6 3d
       -0.21028751 -0.036167447 0.20159717 0.08934066
000240 01 e4 c8 3c 89 78 0e 3d 57 17 e0 3d 97 45 8b bd
       0.024522783 0.03478292 0.10941952 -0.068003826
000250 91 5a f3 bb 78 21 a8 bd 2f 13 c5 bd 3a 9e a7 bd
       -0.007426568 -0.08209509 -0.096227996 -0.08184476
000260 e3 f3 44 bd 8a bc c4 bb 86 35 17 3b 6f 8f db 3c
       -0.04808415 -0.006003921 0.0023072674 0.026801793
000270 67 2b e8 bd 69 32 2d be eb ef fd bd 35 9f ad bd
       -0.11336403 -0.16913761 -0.12399276 -0.08477632
000280 ee 92 9f bc 38 c3 92 3d 5b f9 a6 3d 56 89 78 bd
       -0.019479241 0.07166141 0.081530295 -0.06067785
000290 a5 35 03 bd 8a 4e 8b 3d e7 40 a3 3d f2 e6 8e be
       -0.03203358 0.068020895 0.079713635 -0.27910572
0002a0 b5 9f b9 bd cf 1a 4a 3e 6c 71 c3 3d 83 40 2f 3d
       -0.09063665 0.19736789 0.09543118 0.042786133
0002b0 67 74 86 bd df 75 e9 bc 23 ae 56 bd e2 5e f5 bc
       -0.06565171 -0.028498588 -0.052412163 -0.02995247
0002c0 48 54 bf 3d c5 80 40 bd 12 c6 14 3d de 81 4f bd
       0.09342247 -0.046997804 0.036321707 -0.05066096
0002d0 f8 2f 16 bd 04 84 a4 3d cd 7a d5 bb e6 ee 21 3d
       -0.03666684 0.080329925 -0.006514883 0.039534472
0002e0 60 68 d8 bd bf 73 4e bd 50 e7 38 bd a9 1f c3 bc
       -0.10566783 -0.050403353 -0.04514247 -0.023818808
0002f0 ea 8e 4d 3d 38 2e f7 3d 7a 6d 56 3d 13 f2 b9 bc
       0.05018512 0.120693624 0.0523505 -0.022698438
000300 9a 50 91 3d 0c a1 21 bd f2 f1 85 bc 61 fd 35 be
       0.07095452 -0.039460227 -0.01635072 -0.17772438
000310 87 6f 54 be 61 f6 a4 3e c6 7c 67 3e dc ae 0c 3e
       -0.2074567 0.32219222 0.22606191 0.13738579
000320 98 0c 1a bd 81 a5 ad bd 68 ae bd bc a0 d7 1a bd
       -0.037609667 -0.08478833 -0.023154452 -0.037803292
000330 ea 9e 04 3e 20 16 bd bb 66 72 d4 bd 13 f7 6a 3d
       0.12951246 -0.00577046 -0.10373382 0.057364535
000340 59 ac 17 bd ce bd 86 3d bc e5 09 3e 09 3e 7c 3d
       -0.037029598 0.06579171 0.13466543 0.0615826
000350 e6 bf bc bd f4 3b 1e bd 13 e8 39 be da 04 c1 bd
       -0.09216289 -0.038631395 -0.18154936 -0.094247535
000360 1c de bd bd ed ae 1e bc e7 54 bd bc 4e 84 bd bc
       -0.092708796 -0.00968526 -0.023111774 -0.023134377
000370 3d e5 54 3a da a6 14 be 8f a0 7f 3c b8 34 a0 3d
       0.00081213174 -0.14516774 0.015602245 0.07822555
000380 21 e4 31 be e6 ed 93 3e b3 81 8f 3e 06 f6 13 3e
       -0.1737218 0.2889244 0.2802864 0.14449319
000390 db 95 8e bd b0 b7 ab bc ce b2 f9 bc 19 5b 24 3c
       -0.069621764 -0.020961612 -0.030480769 0.010031485
0003a0 7f 8d d5 3d fd 9d f8 bc 65 96 ae bd 1f 02 06 bd
       0.10427379 -0.030348772 -0.08524779 -0.032716867
0003b0 e2 24 ae 3d f8 fd 03 3e 89 ca 0a 3e e2 85 1a 3e
       0.085031286 0.1288985 0.13553824 0.15090135
0003c0 4c 72 34 bd 8a 78 05 bd da 56 0d bd 5d d9 04 bc
       -0.044054314 -0.032585658 -0.034506656 -0.008108464
0003d0 ea a1 98 3d f3 ce 62 bd d1 6d c8 bc da 9d 9d bd
       0.07452758 -0.055373143 -0.024466427 -0.076961234
0003e0 81 77 48 bc ca a8 c4 bc aa 6d 60 bc fd a8 e3 3d
       -0.012235523 -0.024006266 -0.013698021 0.11116216
0003f0 66 8c ea bd a7 fe 85 3e 80 22 cf 3d d3 b2 62 3d
       -0.1145256 0.26170847 0.10114002 0.05534632

fc1.bias f4 [128]
000000 9b d8 0e 3f a4 8c 9c be 4d c8 23 3f 59 80 56 bd
       0.55799264 -0.3057605 0.6397751 -0.052368496
000010 0b 05 c3 3e 14 73 86 3e 81 c4 d5 3b eb 4e 1c 3e
       0.38089785 0.26259673 0.006523669 0.1526448
000020 3d 5d 1c 3d ee c4 01 3b 0a 44 fc bc 65 59 b6 bc
       0.038174856 0.0019801217 -0.030794162 -0.022259424
000030 b5 86 9b be aa c0 47 3f b4 0a 3c bc 0a d3 f8 be
       -0.3037621 0.7802836 -0.011477161 -0.4859851
000040 03 e6 20 be 9f 47 9f 3e b6 99 28 3d b5 6d fa be
       -0.15712743 0.3110933 0.041162215 -0.48911825
000050 e7 5d c9 3c 1f bb 04 be 55 67 2c 3f f7 ee 47 be
       0.024580909 -0.12962006 0.6734517 -0.19524752
000060 af f8 92 be f8 7c 1e 3e e1 00 09 bf ea 0d 1c be
       -0.28705356 0.1547736 -0.53516966 -0.15239683
000070 6a 66 d6 bc 38 0e 19 bf 04 7c 8d be 30 3e 34 3e
       -0.026171882 -0.5978732 -0.2763368 0.17601848
000080 a7 85 c1 be fb 51 78 3d aa 98 5e bd 20 06 2e bd
       -0.3779728 0.060625058 -0.05434481 -0.04248631
000090 45 98 0c 3f 1e d6 be 3a d3 c7 3d 3f 77 a5 03 3f
       0.54919845 0.0014559662 0.7413303 0.51424354
0000a0 6d 42 ae 3d fc d8 b3 3e 41 b2 cb bd 76 18 26 bf
       0.085087635 0.35126483 -0.099461086 -0.64881074
0000b0 08 12 eb 3d 5e 9b f7 3e b5 0b 8f 3c 9a 54 bf be
       0.114780486 0.48360723 0.017461637 -0.37369233
0000c0 3b 2f cc 3d 71 44 02 be 35 ff 50 be 95 ab 1b bf
       0.09969946 -0.12721421 -0.20409854 -0.6080869
0000d0 8d 91 f3 3e ae 48 4c 3e 56 b0 ba be 36 22 25 bf
       0.47571984 0.199496 -0.3646266 -0.64505327
0000e0 14 89 21 bf 0a c7 90 bb 79 55 88 3e c9 16 3c bf
       -0.6309979 -0.0044182586 0.2662771 -0.7347227
0000f0 55 95 d6 3e cc dc 5b be 29 2d e4 3e 60 ad 63 3f
       0.41910806 -0.21470946 0.44565704 0.88936424
000100 a3 e4 6f bd 88 98 1f 3e ef c0 a4 3e 99 b9 80 3e
       -0.058567654 0.1558553 0.32178447 0.251416
000110 ed 40 8d 3e dd 02 98 be d5 70 de 3d e2 5a 00 bf
       0.27588597 -0.29689685 0.10861365 -0.50138676
000120 8c 7e dc bd e7 56 05 bc 18 90 1a be b4 70 1a 3f
       -0.107663244 -0.008138395 -0.1509403 0.6032822
000130 40 a6 d6 3d cd 2e d7 3e e0 3e 8c 3e e8 82 67 3d
       0.104809284 0.42027894 0.2739172 0.056521326
000140 9c c1 e0 3e 9b dc 07 3f 7c 88 27 3d 91 85 18 bd
       0.43897712 0.5307099 0.040901646 -0.037236754
000150 e3 0c 10 3f 8f 52 d0 be 4d 76 24 bd 3c 3c 4d bd
       0.56269664 -0.40687987 -0.040151883 -0.050106272
000160 54 d7 2f bf dd 4a 2f be 27 9d 00 3e 61 ac 89 3d
       -0.6868794 -0.17118402 0.12559949 0.06722332
000170 07 24 35 bf 89 fc b5 3d ed 16 17 3f 3e ec f0 3e
       -0.707581 0.08886058 0.59019357 0.47055238
000180 e1 be 02 bd 33 a6 d1 3c 1e 0e 4f be c7 25 21 3f
       -0.031920318 0.025591945 -0.20220229 0.6294827
000190 d3 da fa 3e 2e 54 1c bc 7b a3 06 bd fa 26 8d bd
       0.48995075 -0.009541554 -0.03287075 -0.068922
0001a0 95 6a cc 3e b4 9f cf 3e 7c 96 4d 3d 08 15 c2 3e
       0.39925066 0.4055153 0.05019234 0.3790667
0001b0 83 45 58 3e 54 e2 75 bd 92 10 3b 3e 3d dc 9c be
       0.21120267 -0.060030296 0.1826804 -0.30636778
0001c0 42 57 27 be 03 29 e9 3e 39 08 37 3d 36 a3 5e bd
       -0.1634188 0.45539102 0.044685576 -0.05435487
0001d0 52 5a e4 3b af f8 5a bc 74 44 59 bc e6 47 30 bf
       0.006968775 -0.013364955 -0.013260949 -0.6885971
0001e0 e3 7d 85 be 69 46 b0 3c 13 db af 3e 63 75 9b 3e
       -0.26072606 0.02151795 0.34346828 0.30362996
0001f0 36 ed 82 bc 57 a0 31 3f f0 bd 63 3e d3 98 87 3c
       -0.015982252 0.69385284 0.22240424 0.016552364

fc2.weight f4 [10, 128]
000000 53 13 39 3e ac 5d 21 3e 82 1b 4b 3e 75 12 1f 3e
       0.18073778 0.15758389 0.19834712 0.15534385
000010 95 cb 83 bd cc 12 8c be ef 91 05 3d 74 2b ee bd
       -0.064353146 -0.2735809 0.032609876 -0.11629382
000020 b5 23 1e 3e 9d 05 47 bd ee 0d 27 3d 39 09 41 bd
       0.15443309 -0.048589338 0.04078477 -0.047127936
000030 aa 2d 78 3d 7a 6e 30 3e c1 b3 6e bd 35 73 7c 3e
       0.060590424 0.17229643 -0.058276895 0.24653323
000040 0e 20 21 be 05 d8 02 3e 5d a7 91 3d 51 ca 33 bd
       -0.15734884 0.12777717 0.07112 -0.043894116
000050 4d eb 4a ba a4 aa 95 be 48 1a 8d be c3 09 cb bd
       -0.0007740751 -0.2923175 -0.27559114 -0.09913971
000060 07 6e 0a bf 4f 66 1b bf 7e 37 00 be fe 0a b0 bd
       -0.5407414 -0.60702986 -0.12521169 -0.085958466
000070 f7 f0 1d bd 9d 39 37 be 02 32 b5 be 3d 18 b7 be
       -0.03855988 -0.17893071 -0.35389715 -0.3576068
000080 16 97 06 ba db a5 16 be a8 02 70 bd 60 3e 2c be
       -0.0005134208 -0.14711706 -0.058596283 -0.16820669
000090 75 0f 4b 3e cf be e9 3d d6 81 e2 3e 13 c0 65 3d
       0.19830115 0.11413347 0.44239682 0.05609138
0000a0 14 d8 19 bd a4 4a b7 bb ea 8d e1 bd f9 bf 87 bd
       -0.037559584 -0.0055936147 -0.11013396 -0.06628413
0000b0 16 2e 60 be 41 4c 03 3e f0 15 2b bf bb 2a 7a 3d
       -0.2189258 0.12822057 -0.6683035 0.061075907
0000c0 f4 ed 43 be 6b e1 4f 3e 94 fc a4 be c1 76 cf bd
       -0.1913374 0.20300834 -0.32223952 -0.101300724
0000d0 13 10 64 3d d0 ef db 3d a9 d1 cb be 07 6c e2 be
       0.055679392 0.107391 -0.39808396 -0.44223043
0000e0 4e df a9 3c 41 b3 75 3d ab 96 83 be 08 1b 1d 3e
       0.020736363 0.059985403 -0.25700888 0.15342343
0000f0 90 5e d4 bc b6 3e ca be 47 13 33 bd 41 3f 6a 3d
       -0.025923997 -0.3950097 -0.043719556 0.05718923
000100 dd 9c db 3d 0e 83 82 be d2 cb af 3d 4a dd 7c 3e
       0.10723279 -0.25490612 0.085837975 0.2469379
000110 2a a7 0d bf 7f 0d 9d be 5d 1b 43 be 9b 74 bc 3c
       -0.553332 -0.3067436 -0.19053407 0.02300482
000120 2a 39 4b be 0c ac 15 3d dd 04 b0 3d 23 9b 42 3e
       -0.19846025 0.03654103 0.085946776 0.19004492
000130 0b 6a dc 3d ea 8f 0a bd c0 95 dc 3d c0 31 9b 3e
       0.107624136 -0.033828653 0.1077075 0.30311394
000140 f7 a0 8e 3c e3 4a 17 3c b0 25 b0 3d 28 dc aa 3d
       0.017410738 0.009234163 0.08600938 0.08342773
000150 43 d3 03 3c 91 91 2e bf 2c c3 7f 3d a1 17 4b be
       0.008045974 -0.68190867 0.06244199 -0.19833232
000160 b4 a6 30 be 69 9f d2 3d 60 a7 6f 3d 60 2c 94 be
       -0.17251092 0.10284311 0.05850923 -0.28940105
000170 d1 14 38 3d f8 2a 17 3e b5 f9 1e 3e 1a 7f 39 3e
       0.044941727 0.14762485 0.15524943 0.18114892
000180 28 fc e0 3d fc 7b a3 3d 88 44 0c bf 9e 02 cf be
       0.10985595 0.079826325 -0.5479207 -0.40431684
000190 6f 6d 51 3c 13 eb a3 bc 13 81 e9 be 22 32 b2 be
       0.012782439 -0.020009553 -0.45606288 -0.34803873
0001a0 3e 0b c2 be 4c f2 19 3e 58 eb 80 be 95 37 21 bd
       -0.37899202 0.15033835 -0.25179553 -0.039359648
0001b0 5f bc 43 3e 2c ac af be 8e 90 17 3e a9 ab e3 3d
       0.19114827 -0.34311044 0.14801237 0.11116726
0001c0 3f 05 78 be 41 59 08 3e 6d 7a 33 bc 2d aa 76 3c
       -0.24220751 0.13315298 -0.010954482 0.0150552215
0001d0 f1 a8 31 bd 7a 2a 42 3d 68 1a 8e bd 1e 66 88 be
       -0.043374006 0.04740379 -0.0693863 -0.2664041
0001e0 99 ee 1a 3e a9 6b 5b 3e df 79 b1 be 55 ae ed bd
       0.1513008 0.21427788 -0.34663293 -0.11605517
0001f0 33 6b 1f bd d4 69 48 be d0 a5 a7 be c7 5c a0 bc
       -0.038920593 -0.1957162 -0.32743692 -0.01957549
000200 e6 b5 09 bf e4 98 3a be f6 25 b9 3e 08 b0 14 bd
       -0.5379318 -0.18222386 0.36161774 -0.03630069
000210 af b3 bb be 2c 0b bf be fb 51 62 3d b6 26 50 3e
       -0.36660525 -0.3731321 0.055253964 0.20327267
000220 60 24 af bd e3 0e 92 bd 20 90 9b bd 9f 62 80 bb
       -0.0855186 -0.07131746 -0.07595849 -0.0039180066
000230 16 2a a9 3d ae b8 a9 be 54 35 de bc c9 76 00 3e
       0.082599804 -0.33148712 -0.027125038 0.12545313
000240 a0 d8 c2 be 0f af 5a be 01 00 7a 3e 3a a6 27 3e
       -0.38055897 -0.21355842 0.24414064 0.16372004
000250 e4 00 87 3d ba aa 84 bc ab 6d 37 3e 64 27 a1 be
       0.06591967 -0.01619469 0.17912929 -0.31475365
000260 71 da a7 3e 0e d0 11 bf f8 35 eb 3d 3d b2 75 3e
       0.32783845 -0.5695809 0.11484903 0.23993774
000270 05 61 bb 39 96 2f 32 be 74 83 c2 bd 9a ed b8 be
       0.00035739705 -0.17400965 -0.09497729 -0.36118776
000280 bf d2 54 be c2 5f 97 bd 79 f8 4c 3e 54 79 98 3e
       -0.20783518 -0.07391311 0.2001666 0.29780066
000290 83 94 15 3e 8a b3 1d be 55 ec a3 be 74 20 6c bd
       0.14607434 -0.1540052 -0.32016245 -0.057648137
0002a0 e3 20 ad be d0 03 9e be fb 07 d5 3d 17 45 22 be
       -0.33814153 -0.30862284 0.10401913 -0.15846668
0002b0 7d 82 a7 bd c6 dd d7 3c 67 23 db 3e 89 ec 48 3d
       -0.081791855 0.026350867 0.42800447 0.049053703
0002c0 23 30 32 be ff 06 ad 3e 17 fc 16 bf a4 2e 81 3c
       -0.17401175 0.337944 -0.5897841 0.01576931
0002d0 10 fc 3c be 20 ab 0f 3d 2d 26 3d bf 67 bf bd 3e
       -0.18455529 0.035075307 -0.73886377 0.3706009
0002e0 ec 62 24 3d df 48 63 3d 45 15 d4 bc 12 34 91 3e
       0.0401334 0.055489417 -0.025889048 0.2836004
0002f0 95 93 b6 be 43 49 08 bf 5a b3 3a be 97 b1 1a bf
       -0.3565947 -0.5323679 -0.1823248 -0.6042723
000300 a2 bf 2c be 9a 59 0f be 3e ff 04 3e b1 7f 30 3e
       -0.16869977 -0.13999024 0.12987992 0.1723621
000310 71 98 10 bf 2b a9 24 bc 2b 08 8f be 35 a8 f0 3d
       -0.5648261 -0.010050098 -0.2793592 0.11750833
000320 e2 62 80 3e 79 6d bc bd d5 2d 83 3d 05 65 8b be
       0.25075442 -0.09200568 0.06405226 -0.2722551
000330 0c fd 23 bf 3c de f9 3d 51 05 2d be 4a b2 89 3e
       -0.64057994 0.12200591 -0.1689656 0.26893836
000340 0c 3e 92 3e a6 81 3d bf f9 98 a7 3e 87 8f ba 3c
       0.28562963 -0.7402595 0.32733896 0.022773517
000350 ec 3b db 3b 84 ce ca 3e 5f 29 35 3d a7 3f 8e 3b
       0.006690493 0.39610684 0.044228908 0.004341084
000360 fe 50 98 bd d1 f8 21 bd 37 66 54 bd 50 3c 66 3c
       -0.07437323 -0.03954393 -0.051855292 0.014052466
000370 0b a5 82 be 61 50 c3 3d 38 11 1a be b7 a8 38 3c
       -0.25516543 0.095368154 -0.15045631 0.0112706935
000380 0b 7d b8 bd a5 66 02 bd 50 69 5f be 02 e1 5f be
       -0.09008225 -0.03183617 -0.21817517 -0.21863177
000390 54 60 4c be 81 28 34 3d 1c 3a ad 3e ad d6 8a bd
       -0.19958621 0.04398394 0.33833396 -0.067792274
0003a0 14 7c d6 be 2f 5d 7f be 29 db c2 be 98 b1 18 be
       -0.4189154 -0.2493789 -0.3805783 -0.14911497
0003b0 e1 15 9a bb 40 af f4 3d 22 97 19 bf e9 19 90 be
       -0.004702315 0.11947489 -0.59996235 -0.28144768
0003c0 86 7b 13 3e fc 7d f1 be f8 71 82 be 0a 1f eb 3d
       0.14402589 -0.4716643 -0.25477576 0.114805296
0003d0 39 5e 26 3d 82 4a aa be 87 55 84 3d 00 56 85 3e
       0.0406172 -0.3325997 0.064616255 0.26042175
0003e0 e6 cd d5 3e a3 da 07 bb 64 45 a8 bd 08 c7 94 be
       0.4175865 -0.0020729683 -0.0821636 -0.290581
0003f0 a6 a7 89 3d 02 d1 37 bf 25 72 25 3c 1e 05 bf 3c
       0.067214295 -0.71803296 0.010098015 0.02331787

fc2.bias f4 [10]
000000 1c 17 ab 3d a5 75 bf be 4a d8 53 3e a7 11 39 3e
       0.08354017 -0.37394443 0.20687976 0.1807314
000010 9a 46 db be f0 7b a0 3e bf 41 44 3e cb 4e 0b 3e
       -0.42827302 0.31344557 0.19165705 0.13604276
000020 58 bd a6 be e1 95 fb be
       -0.32566333 -0.49137786
